Gym Startup/trained_model.npz (npz, 5744 bytes, 1 tensors)

face_encodings f8 [5, 128]
000000 00 00 00 c0 96 68 c1 bf 00 00 00 e0 d5 36 6e bf
       -0.13600429892539978 -0.0036882569547742605
000010 00 00 00 e0 08 ba a1 3f 00 00 00 40 07 ba 88 bf
       0.03462245687842369 -0.012073570862412453
000020 00 00 00 20 30 e9 85 bf 00 00 00 80 45 3e b1 bf
       -0.01069867704063654 -0.06735643744468689
000030 00 00 00 20 dd 5e aa 3f 00 00 00 80 c7 ee b5 bf
       0.05150500312447548 -0.08567473292350769
000040 00 00 00 c0 19 4f cb 3f 00 00 00 40 f6 34 93 bf
       0.21335145831108093 -0.018756721168756485
000050 00 00 00 40 05 2e c3 3f 00 00 00 80 61 d9 92 3f
       0.14984193444252014 0.018407367169857025
000060 00 00 00 a0 0d 19 be bf 00 00 00 40 a7 65 be bf
       -0.11756978183984756 -0.11873860657215118
000070 00 00 00 20 04 d4 aa bf 00 00 00 40 c8 ac a3 3f
       -0.05239880457520485 0.038427598774433136
000080 00 00 00 c0 f6 b0 c6 bf 00 00 00 00 2b 1c c6 bf
       -0.17727550864219666 -0.17273461818695068
000090 00 00 00 20 7c 59 ac bf 00 00 00 60 de bb bd bf
       -0.05537021532654762 -0.11614789813756943
0000a0 00 00 00 40 88 87 9a 3f 00 00 00 c0 f2 2f 97 3f
       0.025907639414072037 0.02264384552836418
0000b0 00 00 00 60 31 30 a1 3f 00 00 00 80 42 f3 ba 3f
       0.03357080742716789 0.10527434945106506
0000c0 00 00 00 80 4f b4 c5 bf 00 00 00 80 21 6c d3 bf
       -0.1695651412010193 -0.3034747838973999
0000d0 00 00 00 80 2e 75 ae bf 00 00 00 e0 a0 dc ca bf
       -0.05948777496814728 -0.20985804498195648
0000e0 00 00 00 c0 c4 7e be 3f 00 00 00 c0 3d 6a af bf
       0.11912183463573456 -0.06135743111371994
0000f0 00 00 00 c0 f3 8c a0 bf 00 00 00 a0 11 7e a1 3f
       -0.032325379550457 0.03416495397686958
000100 00 00 00 e0 f5 1d cd bf 00 00 00 c0 fd 67 af bf
       -0.2274768203496933 -0.06134026497602463
000110 00 00 00 60 85 3b 98 bf 00 00 00 e0 4e 0a b3 3f
       -0.023664554581046104 0.07437603920698166
000120 00 00 00 a0 b6 5a b5 3f 00 00 00 e0 9c 5f a8 bf
       0.0834154263138771 -0.04760446771979332
000130 00 00 00 a0 0e d5 cb 3f 00 00 00 c0 49 80 86 bf
       0.21743948757648468 -0.010986877605319023
000140 00 00 00 20 7d 97 c4 bf 00 00 00 40 ba a8 a6 3f
       -0.16087307035923004 0.04425603896379471
000150 00 00 00 c0 be 55 a7 3f 00 00 00 00 90 ee d0 3f
       0.0455760583281517 0.2645606994628906
000160 00 00 00 e0 5f da c3 3f 00 00 00 80 55 38 8b 3f
       0.15510176122188568 0.013291042298078537
000170 00 00 00 e0 d5 94 3d bf 00 00 00 40 e4 4d 6b bf
       -0.0004513761668931693 -0.0033330400474369526
000180 00 00 00 00 43 55 c2 3f 00 00 00 60 64 74 c5 bf
       0.1432269811630249 -0.16761450469493866
000190 00 00 00 a0 16 04 b7 3f 00 00 00 00 b1 45 c0 3f
       0.08990613371133804 0.1271268129348755
0001a0 00 00 00 60 22 c4 bb 3f 00 00 00 e0 ce d3 26 bf
       0.10846152156591415 -0.00017415905313100666
0001b0 00 00 00 40 35 29 a1 3f 00 00 00 e0 cc 7e c9 bf
       0.033517517149448395 -0.19918213784694672
0001c0 00 00 00 e0 67 0a 90 3f 00 00 00 e0 7b 22 ac 3f
       0.01566469483077526 0.054950591176748276
0001d0 00 00 00 40 de be cd bf 00 00 00 80 12 35 bd 3f
       -0.23238733410835266 0.11409106850624084
0001e0 00 00 00 e0 40 9c 80 3f 00 00 00 40 a1 e7 9a bf
       0.008110529743134975 -0.026274222880601883
0001f0 00 00 00 e0 0d 49 a4 3f 00 00 00 80 5a ac b2 3f
       0.03961985930800438 0.07294240593910217
000200 00 00 00 e0 eb 5b c5 3f 00 00 00 a0 6d 6a b4 3f
       0.1668677181005478 0.0797489657998085
000210 00 00 00 a0 db 66 a6 bf 00 00 00 a0 74 8f bc bf
       -0.0437534935772419 -0.11156395822763443
000220 00 00 00 c0 22 bd c2 3f 00 00 00 e0 86 0b cf bf
       0.1463969647884369 -0.24253927171230316
000230 00 00 00 80 8d 36 af 3f 00 00 00 60 5b a3 b2 3f
       0.06096307933330536 0.07280512899160385
000240 00 00 00 40 ec 6a b6 bf 00 00 00 20 6f af c0 bf
       -0.08756901323795319 -0.13035382330417633
000250 00 00 00 40 ea 11 d0 bf 00 00 00 80 e6 63 b1 3f
       -0.25109344720840454 0.06793060898780823
000260 00 00 00 00 3b 30 db 3f 00 00 00 a0 bf c9 bc 3f
       0.424818754196167 0.11245343834161758
000270 00 00 00 c0 ef 07 be bf 00 00 00 80 ab 3c b5 3f
       -0.1173086017370224 0.08295699954032898
000280 00 00 00 a0 42 25 c3 bf 00 00 00 00 51 62 ac bf
       -0.14957459270954132 -0.0554375946521759
000290 00 00 00 c0 3d b4 ab 3f 00 00 00 a0 f2 e1 8a 3f
       0.05410950630903244 0.013126273639500141
0002a0 00 00 00 80 0b c1 c5 bf 00 00 00 80 3e b0 b6 3f
       -0.16995376348495483 0.08862677216529846
0002b0 00 00 00 c0 2a 94 c5 bf 00 00 00 c0 77 ea a5 3f
       -0.1685841977596283 0.042804472148418427
0002c0 00 00 00 e0 29 b9 cb 3f 00 00 00 20 97 8f c0 3f
       0.21658824384212494 0.12938202917575836
0002d0 00 00 00 60 27 27 9d bf 00 00 00 e0 38 da cb 3f
       -0.028469672426581383 0.2175971120595932
0002e0 00 00 00 e0 c0 08 8e 3f 00 00 00 c0 62 ab 90 bf
       0.014665133319795132 -0.016278784722089767
0002f0 00 00 00 a0 a4 30 b2 3f 00 00 00 e0 65 9a 80 3f
       0.07105473428964615 0.008106990717351437
000300 00 00 00 40 88 9b bd bf 00 00 00 60 17 5a 7f bf
       -0.11565448343753815 -0.007654277142137289
000310 00 00 00 a0 f0 e8 b6 bf 00 00 00 80 59 b8 98 3f
       -0.08949188143014908 0.02414073795080185
000320 00 00 00 20 a0 fd 91 3f 00 00 00 80 d0 7b b6 bf
       0.01756906695663929 -0.08782675862312317
000330 00 00 00 00 5a 51 96 3f 00 00 00 00 95 b8 b5 3f
       0.02179470658302307 0.08484774827957153
000340 00 00 00 e0 52 e0 cd bf 00 00 00 80 e7 8f af 3f
       -0.23340831696987152 0.0616447776556015
000350 00 00 00 40 8d 11 8c bf 00 00 00 40 e1 a7 b0 bf
       -0.013705352321267128 -0.06506164371967316
000360 00 00 00 c0 49 91 b1 bf 00 00 00 c0 b1 87 aa 3f
       -0.06862317025661469 0.05181651562452316
000370 00 00 00 00 18 25 bb bf 00 00 00 a0 23 1f a6 bf
       -0.10603475570678711 -0.04320632293820381
000380 00 00 00 20 9d 60 c2 3f 00 00 00 c0 c5 72 cb bf
       0.14357341825962067 -0.21444007754325867
000390 00 00 00 80 7a 5f c5 3f 00 00 00 80 df e0 c1 3f
       0.16697627305984497 0.1396750807762146
0003a0 00 00 00 00 e6 ab be 3f 00 00 00 60 4c 16 c8 3f
       0.11981046199798584 0.18818049132823944
0003b0 00 00 00 e0 4d 3b a0 3f 00 00 00 80 17 40 87 bf
       0.03170245513319969 -0.011352714151144028
0003c0 00 00 00 00 92 43 96 bf 00 00 00 00 f2 21 93 bf
       -0.021742135286331177 -0.018684178590774536
0003d0 00 00 00 40 fa 1b bb bf 00 00 00 20 8f d2 85 bf
       -0.10589565336704254 -0.01065551582723856
0003e0 00 00 00 c0 2e a9 a2 3f 00 00 00 60 1e 78 b5 bf
       0.036447010934352875 -0.08386411517858505
0003f0 00 00 00 40 50 d3 c0 3f 00 00 00 e0 52 d6 b8 3f
       0.13144877552986145 0.09702032059431076
000400 00 00 00 40 f0 6c c1 bf 00 00 00 c0 3e 59 44 bf
       -0.13613703846931458 -0.0006209904095157981
000410 00 00 00 80 a6 35 a4 3f 00 00 00 80 94 a3 93 bf
       0.0394718199968338 -0.01917869597673416
000420 00 00 00 a0 54 fb 83 bf 00 00 00 00 15 a9 b2 bf
       -0.009756718762218952 -0.07289248704910278
000430 00 00 00 40 f5 89 a8 3f 00 00 00 80 8b c8 b5 bf
       0.04792753607034683 -0.08509132266044617
000440 00 00 00 80 d6 ba ca 3f 00 00 00 c0 7a 74 97 bf
       0.20882683992385864 -0.022905271500349045
000450 00 00 00 e0 98 70 c3 3f 00 00 00 a0 07 95 8c 3f
       0.15187369287014008 0.013956126756966114
000460 00 00 00 40 06 7c be bf 00 00 00 80 fa bc bd bf
       -0.11907996237277985 -0.11616483330726624
000470 00 00 00 e0 66 59 aa bf 00 00 00 e0 7d 11 a2 3f
       -0.051463332027196884 0.0352897010743618
000480 00 00 00 a0 ba 97 c6 bf 00 00 00 60 39 6a c6 bf
       -0.17650540173053741 -0.17511670291423798
000490 00 00 00 c0 11 e7 ac bf 00 00 00 20 d6 2e be bf
       -0.05645041912794113 -0.11790216714143753
0004a0 00 00 00 40 78 df 9e 3f 00 00 00 60 d2 a4 95 3f
       0.030149344354867935 0.021136557683348656
0004b0 00 00 00 80 5d 2a 9c 3f 00 00 00 00 8c 34 ba 3f
       0.027505360543727875 0.10236430168151855
0004c0 00 00 00 c0 08 3b c6 bf 00 00 00 a0 55 98 d3 bf
       -0.17367658019065857 -0.30617275834083557
0004d0 00 00 00 20 c1 88 b1 bf 00 00 00 a0 38 84 ca bf
       -0.06849295645952225 -0.2071600705385208
0004e0 00 00 00 c0 e7 2d be 3f 00 00 00 e0 ee 92 b0 bf
       0.1178879588842392 -0.06474202126264572
0004f0 00 00 00 40 54 3e a1 bf 00 00 00 60 9b 33 9d 3f
       -0.03367865830659866 0.02851717732846737
000500 00 00 00 e0 89 90 cd bf 00 00 00 60 2d fe ad bf
       -0.23097346723079681 -0.05857984349131584
000510 00 00 00 40 7b 7a 9c bf 00 00 00 00 db 1e b2 3f
       -0.02781097963452339 0.07078331708908081
000520 00 00 00 80 9e 68 b6 3f 00 00 00 20 b1 2f a7 bf
       0.0875338613986969 -0.04528573527932167
000530 00 00 00 80 20 6e cb 3f 00 00 00 00 80 10 86 bf
       0.2142983078956604 -0.010773658752441406
000540 00 00 00 c0 44 95 c4 bf 00 00 00 20 45 01 a9 3f
       -0.16080531477928162 0.0488378144800663
000550 00 00 00 a0 c9 ef a7 3f 00 00 00 80 0d e1 d0 3f
       0.04675130918622017 0.26373612880706787
000560 00 00 00 20 e7 0d c4 3f 00 00 00 60 7b 0c 8e 3f
       0.15667428076267242 0.014672244898974895
000570 00 00 00 e0 37 6e 56 3f 00 00 00 e0 f1 4a 62 bf
       0.0013690515188500285 -0.0022330021020025015
000580 00 00 00 60 5c b3 c1 3f 00 00 00 40 60 9f c4 bf
       0.13828615844249725 -0.16111376881599426
000590 00 00 00 20 50 ea b8 3f 00 00 00 20 db 4e c0 3f
       0.09732533246278763 0.12740649282932281
0005a0 00 00 00 00 78 a0 bc 3f 00 00 00 20 b4 a4 60 bf
       0.11182355880737305 -0.0020316618029028177
0005b0 00 00 00 80 b8 6e a2 3f 00 00 00 c0 c8 71 c9 bf
       0.03600098192691803 -0.19878491759300232
0005c0 00 00 00 80 ce 00 83 3f 00 00 00 c0 91 7c aa 3f
       0.009278882294893265 0.05173163861036301
0005d0 00 00 00 c0 9a 02 ce bf 00 00 00 40 b4 94 be 3f
       -0.23445448279380798 0.11945654451847076
0005e0 00 00 00 00 48 a4 83 3f 00 00 00 c0 02 ef 9c bf
       0.009590685367584229 -0.028255503624677658
0005f0 00 00 00 e0 9e 20 9f 3f 00 00 00 80 12 71 b2 3f
       0.030397875234484673 0.07203784584999084
000600 00 00 00 60 f9 ef c4 3f 00 00 00 c0 63 2c b5 3f
       0.16357342898845673 0.08270858228206635
000610 00 00 00 c0 93 a7 a8 bf 00 00 00 40 35 0c be bf
       -0.04815351217985153 -0.11737377941608429
000620 00 00 00 c0 1f 07 c3 3f 00 00 00 a0 9c 6b cf bf
       0.14865490794181824 -0.2454715520143509
000630 00 00 00 e0 66 db af 3f 00 00 00 c0 e6 e9 b1 3f
       0.062220778316259384 0.06997530162334442
000640 00 00 00 e0 9f 42 b6 bf 00 00 00 20 b6 52 c0 bf
       -0.08695410937070847 -0.12752415239810944
000650 00 00 00 80 c7 39 d0 bf 00 00 00 a0 a4 bf b1 3f
       -0.25352656841278076 0.06933049112558365
000660 00 00 00 20 73 18 db 3f 00 00 00 20 17 51 bb 3f
       0.42336729168891907 0.10670609027147293
000670 00 00 00 80 ec 18 c0 bf 00 00 00 80 fd 66 b6 3f
       -0.12576061487197876 0.08750900626182556
000680 00 00 00 a0 df 25 c3 bf 00 00 00 a0 72 29 ae bf
       -0.1495933085680008 -0.05890997126698494
000690 00 00 00 60 67 ee ac 3f 00 00 00 c0 d2 51 88 3f
       0.05650637671351433 0.011874815449118614
0006a0 00 00 00 e0 c0 b3 c5 bf 00 00 00 e0 9b 40 b8 3f
       -0.1695481389760971 0.09473585337400436
0006b0 00 00 00 e0 e8 d6 c5 bf 00 00 00 80 1b 86 a9 3f
       -0.17062102258205414 0.04985128343105316
0006c0 00 00 00 c0 d4 c6 cb 3f 00 00 00 00 20 3f c0 3f
       0.21700534224510193 0.12692642211914062
0006d0 00 00 00 a0 9f c5 9e bf 00 00 00 40 b9 b2 cb 3f
       -0.030050748959183693 0.21639171242713928
0006e0 00 00 00 c0 b6 97 84 3f 00 00 00 80 d9 03 90 bf
       0.010054996237158775 -0.015639685094356537
0006f0 00 00 00 20 9d dd b2 3f 00 00 00 80 01 f4 8b 3f
       0.07369405776262283 0.013648997992277145
000700 00 00 00 60 55 76 be bf 00 00 00 00 2b b2 8a bf
       -0.1189931258559227 -0.013035140931606293
000710 00 00 00 c0 68 a8 b6 bf 00 00 00 e0 fe f6 9a 3f
       -0.08850722014904022 0.026332838460803032
000720 00 00 00 60 dd 2d 97 3f 00 00 00 c0 94 36 b7 bf
       0.022635897621512413 -0.09067659080028534
000730 00 00 00 80 a4 94 83 3f 00 00 00 a0 da 1f b5 3f
       0.009560856968164444 0.08251730352640152
000740 00 00 00 c0 60 3f cd bf 00 00 00 20 2b 9c b0 3f
       -0.22849664092063904 0.06488294154405594
000750 00 00 00 a0 82 13 85 bf 00 00 00 a0 98 1e b1 bf
       -0.01029111910611391 -0.06687311083078384
000760 00 00 00 00 9f f0 b3 bf 00 00 00 00 0e d5 a9 3f
       -0.07789033651351929 0.05045360326766968
000770 00 00 00 a0 1f 96 bc bf 00 00 00 40 b4 8b a6 bf
       -0.11166570335626602 -0.04403460770845413
000780 00 00 00 80 38 9c c2 3f 00 00 00 00 bf a8 cb bf
       0.14539247751235962 -0.2160872220993042
000790 00 00 00 20 a9 70 c5 3f 00 00 00 60 56 cc c1 3f
       0.16750063002109528 0.13904838263988495
0007a0 00 00 00 00 a2 e7 bc 3f 00 00 00 a0 2d f0 c7 3f
       0.11290943622589111 0.18701715767383575
0007b0 00 00 00 a0 ef 65 a2 3f 00 00 00 60 b0 bb 8b bf
       0.0359339602291584 -0.01354158204048872
0007c0 00 00 00 40 fa 11 92 bf 00 00 00 20 7f 61 94 bf
       -0.017646703869104385 -0.019903169944882393
0007d0 00 00 00 20 e9 64 bb bf 00 00 00 20 91 96 8d bf
       -0.10700852423906326 -0.014447339810431004
0007e0 00 00 00 a0 1c d3 a1 3f 00 00 00 c0 31 1e b5 bf
       0.0348137803375721 -0.08249197900295258
0007f0 00 00 00 80 58 77 c1 3f 00 00 00 20 99 1f b9 3f
       0.13645464181900024 0.09813839942216873
